…
[2023-05-12 01:57:39] Running on device cuda
[2023-05-12 01:57:44] AdamW (
[2023-05-12 01:57:44] Parameter Group 0
[2023-05-12 01:57:44]     amsgrad: False
[2023-05-12 01:57:44]     betas: (0.9, 0.999)
[2023-05-12 01:57:44]     capturable: False
[2023-05-12 01:57:44]     differentiable: False
[2023-05-12 01:57:44]     eps: 1e-08
[2023-05-12 01:57:44]     foreach: None
[2023-05-12 01:57:44]     fused: None
[2023-05-12 01:57:44]     lr: 0.001
[2023-05-12 01:57:44]     maximize: False
[2023-05-12 01:57:44]     weight_decay: 0.01
[2023-05-12 01:57:44] )
[2023-05-12 01:57:44] Crnn1(
[2023-05-12 01:57:44]   (bn0): BatchNorm2d(64, eps=1e-05, momentum=0.1, affine=True, track_running_stats=True)
[2023-05-12 01:57:44]   (bn1): BatchNorm2d(16, eps=1e-05, momentum=0.1, affine=True, track_running_stats=True)
[2023-05-12 01:57:44]   (bn2): BatchNorm2d(32, eps=1e-05, momentum=0.1, affine=True, track_running_stats=True)
[2023-05-12 01:57:44]   (bn3): BatchNorm2d(64, eps=1e-05, momentum=0.1, affine=True, track_running_stats=True)
[2023-05-12 01:57:44]   (bn4): BatchNorm2d(128, eps=1e-05, momentum=0.1, affine=True, track_running_stats=True)
[2023-05-12 01:57:44]   (conv1): Conv2d(1, 16, kernel_size=(3, 3), stride=(1, 1), padding=(1, 1), bias=False)
[2023-05-12 01:57:44]   (conv2): Conv2d(16, 32, kernel_size=(3, 3), stride=(1, 1), padding=(1, 1), bias=False)
[2023-05-12 01:57:44]   (conv3): Conv2d(32, 64, kernel_size=(3, 3), stride=(1, 1), padding=(1, 1), bias=False)
[2023-05-12 01:57:44]   (conv4): Conv2d(64, 128, kernel_size=(3, 3), stride=(1, 1), padding=(1, 1), bias=False)
[2023-05-12 01:57:44]   (bigru): GRU(512, 128, batch_first=True, bidirectional=True)
[2023-05-12 01:57:44]   (fc): Linear(in_features=256, out_features=10, bias=True)
[2023-05-12 01:57:44]   (relu): ReLU()
[2023-05-12 01:57:44] )
[2023-05-12 01:57:49] Epoch 1   training_loss: 0.38  val_loss: 0.36  precision: 0.09  recall: 0.04  f1: 0.06
[2023-05-12 01:57:52] Epoch 2   training_loss: 0.29  val_loss: 0.28  precision: 0.30  recall: 0.15  f1: 0.19
[2023-05-12 01:57:55] Epoch 3   training_loss: 0.27  val_loss: 0.26  precision: 0.44  recall: 0.26  f1: 0.29
…
