…
[2023-05-12 02:17:20] Running on device cuda
[2023-05-12 02:17:26] AdamW (
[2023-05-12 02:17:26] Parameter Group 0
[2023-05-12 02:17:26]     amsgrad: False
[2023-05-12 02:17:26]     betas: (0.9, 0.999)
[2023-05-12 02:17:26]     capturable: False
[2023-05-12 02:17:26]     differentiable: False
[2023-05-12 02:17:26]     eps: 1e-08
[2023-05-12 02:17:26]     foreach: None
[2023-05-12 02:17:26]     fused: None
[2023-05-12 02:17:26]     lr: 0.001
[2023-05-12 02:17:26]     maximize: False
[2023-05-12 02:17:26]     weight_decay: 0.01
[2023-05-12 02:17:26] )
[2023-05-12 02:17:26] Crnn3(
[2023-05-12 02:17:26]   (bn0): BatchNorm2d(64, eps=1e-05, momentum=0.1, affine=True, track_running_stats=True)
[2023-05-12 02:17:26]   (bn1): BatchNorm2d(16, eps=1e-05, momentum=0.1, affine=True, track_running_stats=True)
[2023-05-12 02:17:26]   (bn2): BatchNorm2d(32, eps=1e-05, momentum=0.1, affine=True, track_running_stats=True)
[2023-05-12 02:17:26]   (bn3): BatchNorm2d(64, eps=1e-05, momentum=0.1, affine=True, track_running_stats=True)
[2023-05-12 02:17:26]   (bn4): BatchNorm2d(128, eps=1e-05, momentum=0.1, affine=True, track_running_stats=True)
[2023-05-12 02:17:26]   (bn5): BatchNorm2d(256, eps=1e-05, momentum=0.1, affine=True, track_running_stats=True)
[2023-05-12 02:17:26]   (bn6): BatchNorm2d(512, eps=1e-05, momentum=0.1, affine=True, track_running_stats=True)
[2023-05-12 02:17:26]   (conv1): Conv2d(1, 16, kernel_size=(3, 3), stride=(1, 1), padding=(1, 1), bias=False)
[2023-05-12 02:17:26]   (conv2): Conv2d(16, 32, kernel_size=(3, 3), stride=(1, 1), padding=(1, 1), bias=False)
[2023-05-12 02:17:26]   (conv3): Conv2d(32, 64, kernel_size=(3, 3), stride=(1, 1), padding=(1, 1), bias=False)
[2023-05-12 02:17:26]   (conv4): Conv2d(64, 128, kernel_size=(3, 3), stride=(1, 1), padding=(1, 1), bias=False)
[2023-05-12 02:17:26]   (conv5): Conv2d(128, 256, kernel_size=(3, 3), stride=(1, 1), padding=(1, 1), bias=False)
[2023-05-12 02:17:26]   (conv6): Conv2d(256, 512, kernel_size=(3, 3), stride=(1, 1), padding=(1, 1), bias=False)
[2023-05-12 02:17:26]   (bigru): GRU(512, 128, batch_first=True, bidirectional=True)
[2023-05-12 02:17:26]   (fc): Linear(in_features=256, out_features=10, bias=True)
[2023-05-12 02:17:26]   (relu): ReLU()
[2023-05-12 02:17:26] )
[2023-05-12 02:17:33] Epoch 1   training_loss: 0.35  val_loss: 0.46  precision: 0.00  recall: 0.00  f1: 0.00
[2023-05-12 02:17:36] Epoch 2   training_loss: 0.27  val_loss: 0.31  precision: 0.41  recall: 0.20  f1: 0.24
[2023-05-12 02:17:40] Epoch 3   training_loss: 0.25  val_loss: 0.27  precision: 0.53  recall: 0.27  f1: 0.30
…
