…
[2023-05-12 02:02:39] Running on device cuda
[2023-05-12 02:02:44] AdamW (
[2023-05-12 02:02:44] Parameter Group 0
[2023-05-12 02:02:44]     amsgrad: False
[2023-05-12 02:02:44]     betas: (0.9, 0.999)
[2023-05-12 02:02:44]     capturable: False
[2023-05-12 02:02:44]     differentiable: False
[2023-05-12 02:02:44]     eps: 1e-08
[2023-05-12 02:02:44]     foreach: None
[2023-05-12 02:02:44]     fused: None
[2023-05-12 02:02:44]     lr: 0.001
[2023-05-12 02:02:44]     maximize: False
[2023-05-12 02:02:44]     weight_decay: 0.01
[2023-05-12 02:02:44] )
[2023-05-12 02:02:44] Crnn2(
[2023-05-12 02:02:44]   (bn0): BatchNorm2d(64, eps=1e-05, momentum=0.1, affine=True, track_running_stats=True)
[2023-05-12 02:02:44]   (bn1): BatchNorm2d(16, eps=1e-05, momentum=0.1, affine=True, track_running_stats=True)
[2023-05-12 02:02:44]   (bn2): BatchNorm2d(32, eps=1e-05, momentum=0.1, affine=True, track_running_stats=True)
[2023-05-12 02:02:44]   (bn3): BatchNorm2d(64, eps=1e-05, momentum=0.1, affine=True, track_running_stats=True)
[2023-05-12 02:02:44]   (bn4): BatchNorm2d(128, eps=1e-05, momentum=0.1, affine=True, track_running_stats=True)
[2023-05-12 02:02:44]   (bn5): BatchNorm2d(256, eps=1e-05, momentum=0.1, affine=True, track_running_stats=True)
[2023-05-12 02:02:44]   (conv1): Conv2d(1, 16, kernel_size=(3, 3), stride=(1, 1), padding=(1, 1), bias=False)
[2023-05-12 02:02:44]   (conv2): Conv2d(16, 32, kernel_size=(3, 3), stride=(1, 1), padding=(1, 1), bias=False)
[2023-05-12 02:02:44]   (conv3): Conv2d(32, 64, kernel_size=(3, 3), stride=(1, 1), padding=(1, 1), bias=False)
[2023-05-12 02:02:44]   (conv4): Conv2d(64, 128, kernel_size=(3, 3), stride=(1, 1), padding=(1, 1), bias=False)
[2023-05-12 02:02:44]   (conv5): Conv2d(128, 256, kernel_size=(3, 3), stride=(1, 1), padding=(1, 1), bias=False)
[2023-05-12 02:02:44]   (bigru): GRU(512, 128, batch_first=True, bidirectional=True)
[2023-05-12 02:02:44]   (fc): Linear(in_features=256, out_features=10, bias=True)
[2023-05-12 02:02:44]   (relu): ReLU()
[2023-05-12 02:02:44] )
[2023-05-12 02:02:50] Epoch 1   training_loss: 0.35  val_loss: 0.40  precision: 0.13  recall: 0.03  f1: 0.04
[2023-05-12 02:02:53] Epoch 2   training_loss: 0.29  val_loss: 0.29  precision: 0.28  recall: 0.14  f1: 0.18
[2023-05-12 02:02:57] Epoch 3   training_loss: 0.24  val_loss: 0.25  precision: 0.52  recall: 0.25  f1: 0.30
…
