…
[2023-05-12 02:08:41] Running on device cuda
[2023-05-12 02:08:46] AdamW (
[2023-05-12 02:08:46] Parameter Group 0
[2023-05-12 02:08:46]     amsgrad: False
[2023-05-12 02:08:46]     betas: (0.9, 0.999)
[2023-05-12 02:08:46]     capturable: False
[2023-05-12 02:08:46]     differentiable: False
[2023-05-12 02:08:46]     eps: 1e-08
[2023-05-12 02:08:46]     foreach: None
[2023-05-12 02:08:46]     fused: None
[2023-05-12 02:08:46]     lr: 0.001
[2023-05-12 02:08:46]     maximize: False
[2023-05-12 02:08:46]     weight_decay: 0.01
[2023-05-12 02:08:46] )
[2023-05-12 02:08:46] Crnn1(
[2023-05-12 02:08:46]   (bn0): BatchNorm2d(64, eps=1e-05, momentum=0.1, affine=True, track_running_stats=True)
[2023-05-12 02:08:46]   (bn1): BatchNorm2d(16, eps=1e-05, momentum=0.1, affine=True, track_running_stats=True)
[2023-05-12 02:08:46]   (bn2): BatchNorm2d(32, eps=1e-05, momentum=0.1, affine=True, track_running_stats=True)
[2023-05-12 02:08:46]   (bn3): BatchNorm2d(64, eps=1e-05, momentum=0.1, affine=True, track_running_stats=True)
[2023-05-12 02:08:46]   (bn4): BatchNorm2d(128, eps=1e-05, momentum=0.1, affine=True, track_running_stats=True)
[2023-05-12 02:08:46]   (conv1): Conv2d(1, 16, kernel_size=(3, 3), stride=(1, 1), padding=(1, 1), bias=False)
[2023-05-12 02:08:46]   (conv2): Conv2d(16, 32, kernel_size=(3, 3), stride=(1, 1), padding=(1, 1), bias=False)
[2023-05-12 02:08:46]   (conv3): Conv2d(32, 64, kernel_size=(3, 3), stride=(1, 1), padding=(1, 1), bias=False)
[2023-05-12 02:08:46]   (conv4): Conv2d(64, 128, kernel_size=(3, 3), stride=(1, 1), padding=(1, 1), bias=False)
[2023-05-12 02:08:46]   (bigru): GRU(512, 128, batch_first=True, bidirectional=True)
[2023-05-12 02:08:46]   (fc): Linear(in_features=256, out_features=10, bias=True)
[2023-05-12 02:08:46]   (relu): ReLU()
[2023-05-12 02:08:46] )
[2023-05-12 02:08:52] Epoch 1   training_loss: 0.38  val_loss: 0.36  precision: 0.09  recall: 0.04  f1: 0.06
[2023-05-12 02:08:55] Epoch 2   training_loss: 0.29  val_loss: 0.28  precision: 0.30  recall: 0.15  f1: 0.19
[2023-05-12 02:08:57] Epoch 3   training_loss: 0.27  val_loss: 0.26  precision: 0.44  recall: 0.26  f1: 0.29
…
